assets/tflite/model.tflite (tflite, 193720 bytes, 8 tensors)

model_3/dense_9/BiasAdd/ReadVariableOp f4 [128]
0.22222914 0.022618629 0.24220225 0.0729778 0.19547467 0.064013734 0.18316253 0.12079377
0.08051918 0.053579815 0.25951308 0.1220042 -0.026625218 0.054166526 0.17993958 -0.035265353
0.15747195 0.012715105 0.06117936 0.07261875 -0.07662951 0.10113228 0.18540986 0.18124688
0.059415027 0.049417064 0.07752469 0.16350818 0.082336634 0.15476516 0.090106204 0.02992202
0.111421995 0.17227489 0.12694232 0.16515934 0.1186966 0.19334535 0.12282913 0.0009266598
0.12722333 -0.020904237 0.25485283 0.08221508 0.22097877 0.051645447 0.115663916 0.07358623
0.047596 0.09185818 0.013379009 0.07769196 0.14871395 0.056216877 0.06341128 0.1500559
0.045366954 -0.013368851 0.19095224 0.16697633 0.08128636 -0.035528764 0.2342027 0.12858517
0.06577721 0.26091403 0.15212095 0.16170214 0.07012826 0.07718634 0.11439416 0.22573756
-0.014723348 0.16518003 0.18862684 0.10405442 0.023780515 0.111543216 0.12219549 0.09268831
0.03950998 0.036349565 0.24014245 0.012181372 0.03994607 0.0493535 0.09242557 -0.012784177
0.20668581 0.07894737 0.24104142 0.150035 0.17862117 0.11072909 0.009316732 0.07611776
-0.0014010863 0.19858146 0.16495888 0.05852656 0.18959595 0.11658021 0.12978545 0.17763051
0.21058874 0.08483082 0.12364794 0.24283911 0.07897071 0.06536244 0.05610276 0.011782346
0.057377715 0.074142136 0.16324349 0.0792929 0.13833812 0.128107 -0.031917945 -0.0008358816
-0.031786513 0.276919 -0.009773004 -0.042896245 0.02019151 0.06613597 0.08930954 0.15296967
00000000: 0990 633e b44a b93c de03 783e 6375 953d
00000010: 832a 483e a219 833d f58e 3b3e b962 f73d
00000020: 3de7 a43d 8276 5b3d e6de 843e 57dd f93d
00000030: 211d dabc b8dd 5d3d 1542 383e 6772 10bd
00000040: 5440 213e 0453 503c 3597 7a3d 24b9 943d
00000050: efef 9cbd 711e cf3d 15dc 3d3e c898 393e
00000060: 2c5d 733d 8c69 4a3d 44c5 9e3d b06e 273e
00000070: 1ca0 a83d c27a 1e3e 9a89 b83d 061f f53c
00000080: 3731 e43d d468 303e 2bfd 013e 881f 293e
00000090: 3417 f33d 53fc 453e d78d fb3d 16eb 723a
000000a0: d546 023e 5d3f abbc 127c 823e 6160 a83d
000000b0: 4248 623e 2d8a 533d 34e1 ec3d 61b4 963d
000000c0: 06f4 423d 2420 bc3d a233 5b3c f61c 9f3d
000000d0: 7848 183e ab43 663d c6dd 813d 41a8 193e
000000e0: b3d2 393d 0609 5bbc fc88 433e d8fb 2a3e
000000f0: 7779 a63d 9c86 11bd d5d2 6f3e d5ab 033e
00000100: 34b6 863d 8696 853e 98c5 1b3e 3f95 253e
00000110: 689f 8f3d df13 9e3d 7c47 ea3d bf27 673e
00000120: 333a 71bc f424 293e 6527 413e 7c1a d53d
00000130: 5bcf c23c c570 e43d a141 fa3d 5ed3 bd3d
00000140: 37d5 213d 48e3 143d e7e7 753e 6194 473c
00000150: 7e9e 233d e526 4a3d 9e49 bd3d ba74 51bc
00000160: 72a5 533e 29af a13d 90d3 763e c6a2 193e
00000170: 78e8 363e efc5 e23d 35a5 183c a1e3 9b3d
00000180: a8a4 b7ba f058 4b3e fbea 283e 8cb9 6f3d
00000190: 7125 423e 9bc1 ee3d 7ae6 043e c6e4 353e
000001a0: 93a4 573e c8bb ad3d 223b fd3d d1aa 783e
000001b0: 65bb a13d bedc 853d 02cc 653d be0a 413c
000001c0: e504 6b3d d5d7 973d 4d29 273e 5164 a23d
000001d0: 82a8 0d3e 7b2e 033e 64bc 02bd 111f 5bba
000001e0: 9332 02bd 54c8 8d3e f31e 20bc f9b3 2fbd
000001f0: aa68 a53c 4c72 873d ece7 b63d 15a4 1c3e

model_3/batch_normalization_6/batchnorm/mul f4 [128]
0.5358182 0.6331981 0.5384601 0.5075723 0.6502912 0.5921291 0.5203082 0.5360906
0.64034337 0.63629246 0.4894205 0.6081331 0.57064867 0.6302427 0.6172571 0.6446039
0.6134682 0.63162285 0.5999765 0.54158103 0.7902476 0.5321897 0.52273357 0.59464073
0.6305062 0.59290516 0.65060556 0.6769843 0.76398396 0.6187029 0.64882755 0.6963508
0.7024386 0.5345677 0.63504404 0.5458832 0.4877821 0.61146116 0.5233736 0.63894725
0.57820594 0.61108583 0.5520267 0.69901943 0.52331936 0.6152259 0.54590905 0.56691355
0.6800283 0.55143535 0.56224483 0.645136 0.5416955 0.5904151 0.5384468 0.6719394
0.6362154 0.60961664 0.52707213 0.7097208 0.62392783 0.5201827 0.6040832 0.6100204
0.674945 0.5461155 0.567681 0.5476331 0.63057274 0.6064792 0.61584854 0.5517059
0.5972098 0.5954744 0.54349226 0.54844224 0.61631435 0.57601404 0.6083563 0.5742576
0.50846875 0.58026046 0.5378214 0.65327996 0.56890404 0.50870556 0.6491197 0.60299414
0.59422714 0.594355 0.4951012 0.63153917 0.60227793 0.55608374 0.52161926 0.5541794
0.49816984 0.5736085 0.6716116 0.5813751 0.5106494 0.5243413 0.5583226 0.5556839
0.53911483 0.5731722 0.5209509 0.6182303 0.6121303 0.57637566 0.5830586 0.6318278
0.5953168 0.51502484 0.6514327 0.6304563 0.55418354 0.59342515 0.60697365 0.6868247
0.5011227 0.619279 0.6086219 0.6006566 0.6158885 0.55701435 0.62854326 0.64203584
00000000: 622b 093f 4519 223f 85d8 093f 42f0 013f
00000010: 7c79 263f c695 173f eb32 053f 3c3d 093f
00000020: 8bed 233f 10e4 223f 5395 fa3e 9cae 1b3f
00000030: 0816 123f 9657 213f 9004 1e3f c304 253f
00000040: 410c 1d3f 09b2 213f 0f98 193f 0ea5 0a3f
00000050: ab4d 4a3f 963d 083f ded1 053f 603a 183f
00000060: db68 213f a2c8 173f 168e 263f d84e 2d3f
00000070: 7494 433f 5063 1e3f 9019 263f 0c44 323f
00000080: 04d3 333f 6ed9 083f 3f92 223f 00bf 0b3f
00000090: 93be f93e b888 1c3f d0fb 053f 0c92 233f
000000a0: 4e05 143f 1f70 1c3f 9f51 0d3f f0f2 323f
000000b0: 42f8 053f 727f 1d3f b2c0 0b3f 3f21 113f
000000c0: 5616 2e3f de2a 0d3f 47ef 0f3f a227 253f
000000d0: 8eac 0a3f 7225 173f a6d7 093f 3804 2c3f
000000e0: 03df 223f d60f 1c3f 33ee 063f 43b0 353f
000000f0: bcb9 1f3f b22a 053f 32a5 1a3f 4c2a 1c3f
00000100: 32c9 2c3f 3ace 0b3f 8b53 113f af31 0c3f
00000110: 376d 213f 3942 1b3f 40a8 1d3f 993c 0d3f
00000120: bee2 183f 0371 183f 4f22 0b3f b666 0c3f
00000130: c7c6 1d3f a875 133f 3dbd 1b3f 8c02 133f
00000140: 022b 023f f38b 143f aaae 093f 5b3d 273f
00000150: b2a3 113f 873a 023f b52c 263f d35d 1a3f
00000160: 451f 183f a627 183f e87d fd3e 8dac 213f
00000170: e32e 1a3f 815b 0e3f d788 053f b3de 0d3f
00000180: 1e10 ff3e 02d8 123f bdee 2b3f 00d5 143f
00000190: ebb9 023f 3b3b 063f 3bee 0e3f 4d41 0e3f
000001a0: 6e03 0a3f 6abb 123f 0a5d 053f 5744 1e3f
000001b0: 92b4 1c3f 5b8d 133f 5443 153f 77bf 213f
000001c0: af66 183f abd8 033f 4bc4 263f 9665 213f
000001d0: f9de 0d3f b6ea 173f a062 1b3f bed3 2f3f
000001e0: 9449 003f 1289 1e3f a5ce 1b3f a2c4 193f
000001f0: deaa 1d3f 7e98 0e3f 36e8 203f 765c 243f

model_3/batch_normalization_6/batchnorm/sub f4 [128]
-0.78658086 -0.5949747 -1.1700662 -1.0977128 -0.7247563 -0.57167375 -0.7482828 -0.9446638
-0.8178109 -1.070509 -1.0476091 -1.1159648 -0.88025796 -0.40038496 -0.81909275 -1.1186712
-0.84241694 -0.98890126 -1.0043612 -0.8722229 -0.7447653 -0.69126767 -0.9360887 -1.0412704
-0.97859794 -0.72983533 -1.0242951 -0.5677048 -0.75044835 -0.85832787 -0.63931775 -0.56041026
-0.64240867 -0.83153504 -0.8967233 -0.8696615 -0.7466432 -0.44264838 -0.836262 -1.1822033
-0.3300375 -0.7241922 -0.4896784 -0.36583784 -0.71542895 -0.68061936 -0.65345305 -0.6798249
-0.7109244 -0.79374623 -0.8181038 -0.5900507 -0.4872145 -0.76214635 -0.8830586 -0.41229305
-0.1895858 -1.0046524 -1.0203984 -0.83369863 -0.6300181 -1.19691 -0.8814376 -0.4195491
-0.80386424 -0.8398884 -0.8979636 -0.7234666 -0.7885515 -1.0553212 -0.9197753 -1.0900495
-0.59136444 -0.9283791 -1.0374763 -0.97750187 -0.6137635 -0.8261696 -1.0586787 -0.6585982
-1.2229999 -0.72766423 -0.8118095 -0.46261883 -0.89904386 -0.66191703 -0.7746116 -0.75752944
-0.45610422 -0.9507228 -0.88526446 -0.61920327 -0.49837154 -0.5701653 -0.82438356 -0.8189155
-0.6961477 -0.7836796 -0.5848146 -0.50892246 -0.6372967 -0.83891755 -0.9612318 -0.85652053
-0.6967328 -0.87908995 -0.5125369 -0.85011387 -0.63492036 -0.76122475 -1.1621721 -0.6620211
-0.7567708 -0.9681225 -0.8619482 -0.4144541 -0.63150585 -0.64078355 -0.7524036 -1.0206234
-0.90999025 -0.74786997 -0.9956721 -0.5416825 -0.74964625 -0.7979999 -0.6256768 -0.5037346
00000000: 5d5d 49bf 4350 18bf bbc4 95bf da81 8cbf
00000010: a189 39bf 3659 12bf 768f 3fbf 7dd5 71bf
00000020: 0e5c 51bf 7006 89bf 0e18 86bf efd7 8ebf
00000030: 9658 61bf 42ff ccbe 10b0 51bf 9e30 8fbf
00000040: a3a8 57bf a228 7dbf e88e 80bf 004a 5fbf
00000050: f0a8 3ebf ebf6 30bf 82a3 6fbf 5948 85bf
00000060: 6585 7abf 7dd6 3abf 1a1c 83bf 1a55 11bf
00000070: 621d 40bf 60bb 5bbf 54aa 23bf 0c77 0fbf
00000080: e574 24bf 7bdf 54bf a88f 65bf 23a2 5ebf
00000090: 0224 3fbf cfa2 e2be 4415 56bf 7052 97bf
000000a0: adfa a8be a964 39bf 21b7 fabe 194f bbbe
000000b0: 5a26 37bf 123d 2ebf b348 27bf 0109 2ebf
000000c0: 24ff 35bf f432 4bbf 406f 51bf 900d 17bf
000000d0: 2e74 f9be 061c 43bf 2110 62bf 1318 d3be
000000e0: c822 42be 7398 80bf 6a9c 82bf 466d 55bf
000000f0: de48 21bf 5934 99bf e5a5 61bf 24cf d6be
00000100: 0cca 4dbf ed02 57bf f1e0 65bf 1b35 39bf
00000110: 83de 49bf c414 87bf 6576 6bbf be86 8bbf
00000120: a963 17bf 41aa 6dbf 06cc 84bf 903d 7abf
00000130: 9b1f 1dbf da7f 53bf c982 87bf e499 28bf
00000140: 438b 9cbf 3448 3abf bfd2 4fbf 60dc ecbe
00000150: bd27 66bf 6573 29bf f24c 46bf 73ed 41bf
00000160: 7e86 e9be 9262 73bf b1a0 62bf 1b84 1ebf
00000170: 8e2a ffbe 5af6 11bf cd0a 53bf 72a4 51bf
00000180: bc36 32bf 3a9f 48bf 69b6 15bf be48 02bf
00000190: e025 23bf 4dc3 56bf 4a13 76bf ee44 5bbf
000001a0: 155d 32bf 0a0c 61bf 9e35 03bf 10a1 59bf
000001b0: 248a 22bf a0df 42bf 0ec2 94bf 377a 29bf
000001c0: bbbb 41bf e0d6 77bf a3a8 5cbf 5433 d4be
000001d0: 5eaa 21bf 640a 24bf 869d 40bf caa3 82bf
000001e0: 1ff5 68bf 6874 3fbf 5ee4 7ebf b4ab 0abf
000001f0: d1e8 3fbf b949 4cbf 5b2c 20bf c0f4 00bf

model_3/dense_11/MatMul;model_3/dense_11/BiasAdd f4 [817]
1.5750576 1.3229833 1.0536493 2.675584 1.9882226 2.978032 2.5464864 0.55879563
-1.7623094 2.2804446 1.936155 2.0908415 2.1062207 1.3382092 1.9031897 2.4824953
2.368385 1.7684561 1.8461962 1.5971911 2.107543 2.4747767 2.6814795 2.188008
2.1202743 1.8866634 2.0242767 2.8518705 2.5442333 1.5894301 2.039579 1.4489565
0.94849724 1.1108801 1.8972982 1.1520072 1.1442727 0.83877647 2.2673657 2.1205304
2.0683205 2.1309838 2.522712 0.9229464 1.0009193 1.8746858 1.8175799 1.1278173
1.5223321 1.3278729 1.5982038 1.5572851 1.1799107 1.6771419 0.29795575 0.7626825
1.6485368 2.1671689 1.5873666 2.3938837 2.7587082 3.9338255 1.8652369 1.4904789
1.7808707 2.3314643 1.6903085 1.2864159 1.0568544 1.57214 1.6320226 2.2650363
1.7850331 3.252216 1.346251 2.5960493 1.238979 3.019263 0.89136845 2.01833
2.3049386 0.55756974 0.9827561 2.2713075 0.61545604 -1.7138373 3.527177 2.4586792
1.2614876 1.9271132 -1.7231483 1.6319101 1.2731521 0.5293994 0.849989 0.9130517
2.5547307 1.7473463 2.5720317 2.5169384 2.4004514 1.4144562 2.3986895 1.3831745
1.5168955 1.8631282 1.519332 3.6665778 2.5190458 2.0583167 1.2239555 0.42208958
1.4966251 1.697872 1.8315786 -1.7549888 3.2976987 1.1416581 2.185669 1.7634116
1.4128476 1.376393 1.7298516 2.1013181 1.5702472 0.7456391 2.8692498 1.2959548
2.5236914 1.1420192 1.2523123 1.2026447 2.728772 2.5541182 1.7943848 0.6742191
0.73022026 1.5470501 2.6539056 2.1536546 1.5559348 1.8760209 -1.6204789 1.4466552
1.3698145 3.163807 -1.7975572 1.4921329 1.6621186 1.4684069 1.1383471 2.0529897
1.4187516 1.8075081 1.2113484 1.484663 1.8499253 1.1588926 2.0660563 1.3735613
1.4261839 2.3100781 1.880627 1.9144359 -1.7069741 1.7691362 1.9777269 1.9794316
2.1714017 2.381434 2.4592593 2.5833328 2.731367 1.3168081 2.978118 2.8721752
2.8721783 0.9939406 0.178643 1.9633242 1.3252474 2.3067272 1.1494371 1.9325976
3.2268753 2.248616 0.96296245 2.6224585 2.4334772 0.9179431 2.2656693 2.4868343
1.8209853 3.130435 3.6474414 1.9194894 2.1472087 2.6780202 0.9412629 1.8844329
1.9654677 0.64916086 1.0119298 1.9634665 1.0303569 1.4830307 1.3882297 2.026106
1.5304686 2.083207 2.9580417 1.0615889 2.2970464 1.9502646 2.6038415 2.5029433
1.8564951 1.9306719 1.9626487 1.8050098 1.9177407 2.8068142 2.5826302 2.0388474
2.0554838 1.9925172 1.5441594 2.1656497 3.0341077 1.8566064 2.7736669 3.4126697
1.7434045 2.9948504 2.9056904 2.5775034 2.4106278 2.5036693 -1.753097 2.1842866
1.8591701 2.5201273 1.1752312 1.0477061 1.8859028 2.0105388 2.4061441 2.6792305
1.3246044 2.673051 1.4063389 0.07553807 0.60462564 1.9778138 2.091699 2.3406904
00000000: 7d9b c93f 8457 a93f fbdd 863f c53c 2b40
00000010: 147e fe3f 1498 3e40 a2f9 2240 3b0d 0f3f
00000020: 5b93 e1bf cef2 1140 edd3 f73f 59d0 0540
00000030: 52cc 0640 704a ab3f b89b f33f 34e1 1e40
00000040: 9f93 1740 c55c e23f 2850 ec3f c270 cc3f
00000050: fce1 0640 be62 1e40 5c9d 2b40 5308 0c40
00000060: 93b2 0740 307e f13f c08d 0140 0c85 3640
00000070: b8d4 2240 7272 cb3f 7688 0240 6877 b93f
00000080: b7d0 723f 5231 8e3f abda f23f f974 933f
00000090: 8777 923f 0eba 563f 851c 1140 c5b6 0740
000000a0: 5d5f 0440 0a62 0840 1d74 2140 3746 6c3f
000000b0: 201e 803f b4f5 ef3f 75a6 e83f 515c 903f
000000c0: c7db c23f bdf7 a93f f191 cc3f 1e55 c73f
000000d0: 5007 973f 96ac d63f a88d 983e 293f 433f
000000e0: 4103 d33f e5b2 0a40 d42e cb3f 6435 1940
000000f0: ad8e 3040 ccc3 7b40 15c0 ee3f 03c8 be3f
00000100: 92f3 e33f b636 1540 075c d83f 47a9 a43f
00000110: 0147 873f e23b c93f 1ee6 d03f 5bf6 1040
00000120: f77b e43f 4f24 5040 f451 ac3f ac25 2640
00000130: dd96 9e3f 9b3b 4140 b930 643f 522c 0140
00000140: 1d84 1340 e4bc 0e3f e795 7b3f 1a5d 1140
00000150: 878e 1d3f 055f dbbf 45bd 6140 005b 1d40
00000160: 6d78 a13f a5ab f63f 2090 dcbf 6ee2 d03f
00000170: a6f6 a23f b886 073f e198 593f c2bd 693f
00000180: b580 2340 0ba9 df3f 2b9c 2440 8515 2140
00000190: ffa0 1940 e70c b53f 2184 1940 dd0b b13f
000001a0: a229 c23f fc7a ee3f 7979 c23f 36a9 6a40
000001b0: 0c38 2140 76bb 0340 93aa 9c3f 201c d83e
000001c0: 6991 bf3f df53 d93f 2b71 ea3f 79a3 e0bf
000001d0: 7f0d 5340 da21 923f 00e2 0b40 79b7 e13f
000001e0: 31d8 b43f a52d b03f c76b dd3f ff7b 0640
000001f0: dcfd c83f 34e2 3e3f caa1 3740 d9e1 a53f
00000200: 2984 2140 af2d 923f c54b a03f 43f0 993f
00000210: 33a4 2e40 ac76 2340 67ae e53f 9f99 2c3f
00000220: b7ef 3a3f bd05 c63f 97d9 2940 7ad5 0940
00000230: df28 c73f 7421 f03f da6b cfbf ff2b b93f
00000240: 1556 af3f d07b 4a40 5b16 e6bf 36fe be3f
00000250: 4dc0 d43f c2f4 bb3f 5cb5 913f 2f64 0340
00000260: a799 b53f 6d5c e73f 770d 9b3f 7009 be3f
00000270: 5aca ec3f 9856 943f 443a 0440 dbd0 af3f
00000280: 328d b63f 52d8 1340 63b8 f03f 3c0c f53f
00000290: 217e dabf 0e73 e23f 2826 fd3f 045e fd3f
000002a0: 3ff8 0a40 6a69 1840 8164 1d40 5355 2540
000002b0: b8ce 2e40 2b8d a83f 7c99 3e40 b8d1 3740
000002c0: c5d1 3740 e472 7e3f 31ee 363e 354e fb3f
000002d0: b5a1 a93f 6ba1 1340 c120 933f 5c5f f73f
000002e0: 2085 4e40 53e9 0f40 b584 763f 5cd6 2740
000002f0: 17be 1b40 52fe 6a3f ba00 1140 4b28 1f40
00000300: 0c16 e93f 0c59 4840 ae6f 6940 d4b1 f53f
00000310: de6b 0940 af64 2b40 9bf6 703f 1935 f13f
00000320: 7294 fb3f 682f 263f ea86 813f df52 fb3f
00000330: bce2 833f f3d3 bd3f 83b1 b13f b9ab 0140
00000340: 65e6 c33f 4353 0540 8e50 3d40 25e2 873f
00000350: cf02 1340 45a2 f93f 57a5 2640 3930 2040
00000360: a2a1 ed3f 4220 f73f 1338 fb3f 900a e73f
00000370: 8778 f53f d8a2 3340 d049 2540 7a7c 0240
00000380: 0c8d 0340 ce0a ff3f 04a7 c53f 019a 0a40
00000390: d22e 4240 47a5 ed3f c283 3140 2e69 5a40
000003a0: e127 df3f a1ab 3f40 d5f6 3940 d1f5 2440
000003b0: ba47 1a40 1e3c 2040 7c65 e0bf 5acb 0b40
000003c0: 49f9 ed3f c449 2140 fa6d 963f 3c1b 863f
000003d0: 4365 f13f abac 0040 44fe 1940 8378 2b40
000003e0: a38c a93f 4513 2b40 ea02 b43f b4b3 9a3d
000003f0: bfc8 1a3f 0129 fd3f 65de 0540 dfcd 1540

model_3/dense_10/MatMul;model_3/dense_10/Relu;model_3/dense_10/BiasAdd f4 [128]
1.560609 0.19306587 1.4685119 0.7235284 2.6964 1.4831471 -1.6809047 1.4162316
-0.58796525 -0.001258322 1.6772965 2.2315214 0.6682747 1.3162075 -1.3642157 -0.58842736
2.21884 0.9849327 -0.10789657 0.45558545 2.5276256 2.6064203 2.1867867 -0.057698097
-0.21569628 -0.7659706 0.8984598 2.118169 -0.76466936 -0.59391946 -1.55866 0.2921955
1.6566457 0.9144275 -1.2481759 0.6896038 3.0199032 -0.5668393 2.1944766 0.39689034
0.5596718 -0.103891514 2.3157945 -0.22474135 2.4972146 -1.9736124 -0.23869264 0.17026849
0.62571496 -2.2754347 3.4911754 -0.6469944 -0.6591836 0.65388364 0.779163 -0.87379885
-0.6860398 -1.4316319 1.6301306 0.98358965 -3.203232 -0.22820699 2.3582118 0.59855145
-1.0505116 0.08048904 2.034195 1.2941924 0.2284006 0.41622582 -0.1006203 1.8695766
-0.49138048 -1.7903401 1.8584384 3.3141081 -1.3085982 -0.9552792 2.1233618 -0.2741358
1.1623174 0.984322 -0.027640346 0.94967383 0.7156264 1.0927454 -1.4675752 1.7854346
0.8604874 -0.9779471 1.9344647 0.91054016 2.891377 2.2754378 0.40704954 2.4960823
0.93979895 0.19428007 -2.965367 3.2006674 2.389762 3.3418171 1.2303857 1.351949
0.5880591 0.255465 2.6149118 -2.0451086 1.9766486 -0.33856675 1.5590936 1.1384337
1.696841 2.299156 -1.3221703 -1.6719974 0.4319817 0.93508744 1.0933534 0.04340759
2.747167 0.8085092 -1.1587343 -0.9844886 2.3465526 1.5058674 1.4686853 0.5737619
00000000: 09c2 c73f 0fb3 453e 33f8 bb3f 2839 393f
00000010: d191 2c40 c4d7 bd3f e327 d7bf 1447 b53f
00000020: e484 16bf 48ee a4ba a7b1 d63f 3fd1 0e40
00000030: 0d14 2b3f 7d79 a83f 9f9e aebf 2da3 16bf
00000040: 7901 0e40 8d24 7c3f e0f8 dcbd 7f42 e93e
00000050: 9ec4 2140 97cf 2640 50f4 0b40 d754 6cbd
00000060: 7cdf 5cbe a616 44bf 7601 663f 1590 0740
00000070: 5fc1 43bf 1b0b 18bf 2c82 c7bf a69a 953e
00000080: f70c d43f ec17 6a3f 3ac4 9fbf e089 303f
00000090: 1846 4140 611c 11bf 4e72 0c40 3635 cb3e
000000a0: a746 0f3f 13c5 d4bd fa35 1440 9922 66be
000000b0: 5dd2 1f40 559f fcbf d86b 74be dd5a 2e3e
000000c0: db2e 203f b9a0 11c0 6b6f 5f40 6da1 25bf
000000d0: 42c0 28bf eb64 273f 3a77 473f 48b1 5fbf
000000e0: 4ea0 2fbf b73f b7bf 1fa8 d03f 88cc 7b3f
000000f0: c101 4dc0 18af 69be f1ec 1640 ab3a 193f
00000100: 2a77 86bf 70d7 a43d 4030 0240 19a8 a53f
00000110: d9e1 693e 8d1b d53e 0412 cebd 494e ef3f
00000120: 3996 fbbe dd29 e5bf 4fe1 ed3f 591a 5440
00000130: 2580 a7bf 2d8d 74bf 29e5 0740 875b 8cbe
00000140: d1c6 943f 87fc 7b3f 026e e2bc d31d 733f
00000150: 4b33 373f 15df 8b3f 81d9 bbbf 1f89 e43f
00000160: e748 5c3f be5a 7abf 8a9c f73f 2919 693f
00000170: 520c 3940 c6a0 1140 cc68 d03e d0bf 1f40
00000180: aa96 703f 5bf1 463e 93c8 3dc0 bcd7 4c40
00000190: dcf1 1840 55e0 5540 477d 9d3f aa0c ad3f
000001a0: 0b8b 163f 4fcc 823e b75a 2740 0fe3 02c0
000001b0: d202 fd3f 9f58 adbe 6190 c73f 32b8 913f
000001c0: 1632 d93f 5f25 1340 e03c a9bf 0304 d6bf
000001d0: b52c dd3e e461 6f3f 01f3 8b3f 28cc 313d
000001e0: 96d1 2f40 75fa 4e3f 6851 94bf 7207 7cbf
000001f0: eb2d 1640 43c0 c03f e1fd bb3f 0fe2 123f

model_3/batch_normalization_6/batchnorm/mul_1;model_3/batch_normalization_6/batchnorm/add_1;model_3/dense_10/MatMul;model_3/dense_10/Relu;model_3/dense_10/BiasAdd i1 [128, 128] scale=0.0026307371 zero_point=0
0.12364464 0.0026307371 0.15784423 -0.013153685 0.12101391 -0.0710299 -0.007892212 0.12890612
-0.047353268 0.028938109 -0.047353268 0.11838317 0.02630737 0.08155285 -0.04472253 0.23676634
0.113121696 0.023676634 -0.09996801 0.10522948 -0.0026307371 0.028938109 -0.078922115 -0.14995202
-0.09996801 0.0026307371 -0.028938109 -0.14469054 -0.023676634 -0.060506955 0.06839917 -0.09996801
-0.042091794 -0.049984004 0.113121696 0.078922115 -0.07366064 -0.05261474 -0.034199584 -0.08418359
0.042091794 -0.028938109 -0.05524548 -0.2630737 -0.0052614743 -0.11049096 -0.042091794 0.034199584
-0.113121696 -0.02630737 -0.063137695 -0.010522949 -0.13942906 0.0026307371 -0.0052614743 -0.23150487
-0.19730529 0.02630737 0.05524548 -0.015784424 -0.023676634 -0.057876218 -0.01841516 -0.12101391
-0.18152086 -0.031568848 -0.08681433 0.04472253 -0.01841516 0.08418359 -0.10786022 0.08681433
-0.028938109 0.02630737 0.03683032 -0.11049096 -0.02630737 0.028938109 -0.039461058 -0.12890612
0.12101391 0.04472253 0.042091794 -0.06576843 -0.039461058 0.0026307371 -0.013153685 -0.076291375
-0.076291375 0.15784423 -0.015784424 0.034199584 -0.08418359 -0.057876218 0.05261474 0.08681433
-0.010522949 0.05524548 -0.12890612 0.010522949 -0.11049096 -0.028938109 -0.015784424 -0.12101391
0.08418359 -0.05261474 -0.1341676 -0.023676634 0.047353268 -0.12890612 0.0710299 0.023676634
0.06576843 0.057876218 0.063137695 -0.04472253 -0.03683032 -0.09996801 -0.04472253 -0.14995202
-0.015784424 -0.034199584 0.042091794 -0.10259875 0.039461058 -0.05261474 -0.057876218 -0.010522949
-0.0026307371 0.08418359 0.08155285 0.031568848 -0.08155285 -0.0052614743 -0.049984004 0.10522948
0.02630737 -0.16836718 0.007892212 0.06576843 -0.115752436 0.063137695 -0.047353268 -0.042091794
-0.16573644 -0.047353268 0.04472253 0.094706535 0.049984004 -0.02630737 -0.10259875 0.08418359
-0.076291375 0.12101391 -0.031568848 -0.13679834 0.02630737 -0.023676634 -0.097337276 0.015784424
-0.12101391 -0.015784424 0.094706535 -0.02630737 0.1420598 0.01841516 -0.013153685 0.03683032
-0.16573644 0.094706535 -0.10786022 -0.17889012 0.023676634 0.04472253 0.031568848 0.013153685
0.0710299 -0.007892212 0.06576843 -0.17099792 -0.063137695 -0.115752436 -0.10259875 -0.1841516
-0.08681433 0.05524548 0.021045897 -0.01841516 0.115752436 -0.02630737 0.042091794 -0.023676634
-0.08944506 -0.015784424 -0.042091794 -0.042091794 0.01841516 -0.06839917 0.0 0.047353268
-0.01841516 0.02630737 -0.007892212 -0.03683032 -0.1420598 -0.042091794 0.057876218 -0.0710299
0.05261474 -0.08155285 0.007892212 -0.15521349 -0.015784424 0.034199584 0.010522949 -0.023676634
-0.05261474 0.063137695 -0.007892212 0.097337276 -0.0710299 0.03683032 0.06576843 0.15521349
0.08155285 -0.031568848 -0.08944506 -0.08418359 -0.047353268 0.007892212 -0.007892212 -0.1420598
-0.0026307371 0.013153685 0.021045897 0.010522949 0.06576843 0.021045897 0.047353268 -0.0052614743
-0.0920758 0.028938109 0.097337276 0.02630737 0.14469054 0.12890612 0.039461058 -0.060506955
0.01841516 -0.12364464 0.034199584 -0.039461058 -0.05261474 0.023676634 0.08681433 -0.05524548
00000000: 2f01 3cfb 2ee5 fd31 ee0b ee2d 0a1f ef5a
00000010: 2b09 da28 ff0b e2c7 da01 f5c9 f7e9 1ada
00000020: f0ed 2b1e e4ec f3e0 10f5 eb9c fed6 f00d
00000030: d5f6 e8fc cb01 fea8 b50a 15fa f7ea f9d2
00000040: bbf4 df11 f920 d721 f50a 0ed6 f60b f1cf
00000050: 2e11 10e7 f101 fbe3 e33c fa0d e0ea 1421
00000060: fc15 cf04 d6f5 fad2 20ec cdf7 12cf 1b09
00000070: 1916 18ef f2da efc7 faf3 10d9 0fec eafc
00000080: ff20 1f0c e1fe ed28 0ac0 0319 d418 eef0
00000090: c1ee 1124 13f6 d920 e32e f4cc 0af7 db06
000000a0: d2fa 24f6 3607 fb0e c124 d7bc 0911 0c05
000000b0: 1bfd 19bf e8d4 d9ba df15 08f9 2cf6 10f7
000000c0: defa f0f0 07e6 0012 f90a fdf2 caf0 16e5
000000d0: 14e1 03c5 fa0d 04f7 ec18 fd25 e50e 193b
000000e0: 1ff4 dee0 ee03 fdca ff05 0804 1908 12fe
000000f0: dd0b 250a 3731 0fe9 07d1 0df1 ec09 21eb

model_3/batch_normalization_7/batchnorm/mul_1;model_3/batch_normalization_7/batchnorm/add_1;model_3/dense_11/MatMul;model_3/dense_11/BiasAdd i1 [817, 128] scale=0.008555604 zero_point=0
-0.5390031 -0.23955691 0.017111208 -0.5817811 -0.18822329 -0.051333625 -0.22244571 -0.26522374
-0.119778454 -0.34222418 -0.25666812 0.017111208 0.119778454 0.017111208 0.16255648 0.07700044
-0.094111644 0.085556045 -0.29089054 -0.094111644 -0.06844483 -0.18822329 -0.31655735 -0.119778454
-0.042778023 -0.16255648 -0.35077977 0.0 -0.16255648 -0.094111644 -0.35077977 -0.111222856
-0.13688967 -0.16255648 -0.23100132 -0.017111208 -0.06844483 0.025666812 -0.22244571 -0.35933536
-0.1967789 -0.14544527 -0.1967789 -0.008555604 -0.12833406 -0.085556045 0.034222417 -0.22244571
-0.085556045 0.042778023 0.10266725 -0.30800176 0.12833406 -0.025666812 -0.28233492 -0.051333625
-0.051333625 -0.008555604 -0.15400088 -0.17111209 -0.17966768 -0.17966768 0.25666812 0.15400088
-0.119778454 -0.094111644 0.2053345 -0.17111209 -0.14544527 -0.3850022 0.094111644 -0.30800176
-0.06844483 0.119778454 -0.24811251 -0.085556045 -0.14544527 -0.29089054 -0.34222418 -0.16255648
-0.034222417 -0.1967789 -0.051333625 -0.2053345 -0.14544527 -0.26522374 0.18822329 -0.6416703
-0.22244571 -0.2138901 -0.51333624 0.14544527 -0.034222417 -0.008555604 -0.36789098 -0.34222418
0.22244571 0.06844483 -0.017111208 -0.2138901 -0.34222418 0.24811251 -0.051333625 -0.07700044
-0.36789098 -0.2138901 -0.1967789 -0.094111644 0.085556045 -0.034222417 -0.111222856 -0.094111644
-0.042778023 -0.453447 -0.15400088 -0.051333625 0.12833406 -0.36789098 -0.12833406 -0.4021134
-0.35933536 0.0 -0.65022594 -0.085556045 -0.017111208 -0.23100132 -0.22244571 -0.111222856
-0.453447 0.07700044 0.008555604 -0.1967789 -0.017111208 -0.16255648 -0.3850022 0.042778023
-0.31655735 -0.37644657 0.111222856 -0.23955691 -0.32511297 -0.085556045 -0.23100132 -0.085556045
-0.14544527 -0.17111209 -0.23100132 0.008555604 -0.017111208 -0.46200264 -0.17111209 -0.13688967
-0.3850022 0.059889227 -0.085556045 -0.2138901 0.094111644 -0.059889227 -0.06844483 0.18822329
0.119778454 -0.06844483 -0.1967789 -0.31655735 0.059889227 -0.111222856 -0.17966768 -0.10266725
-0.094111644 0.085556045 0.119778454 0.094111644 0.06844483 -0.07700044 -0.2138901 -0.042778023
-0.051333625 -0.29089054 -0.06844483 -0.18822329 0.0 -0.025666812 -0.32511297 0.008555604
-0.18822329 -0.29944614 0.051333625 -0.085556045 -0.17966768 -0.008555604 0.051333625 -0.025666812
-0.16255648 -0.034222417 -0.17111209 0.034222417 -0.034222417 -0.28233492 -0.23955691 -0.10266725
-0.051333625 -0.35933536 -0.48766944 0.111222856 -0.33366856 -0.28233492 -0.14544527 -0.07700044
-0.5732255 -0.2138901 0.042778023 -0.16255648 -0.23955691 -0.059889227 0.16255648 -0.085556045
-0.07700044 -0.17966768 0.017111208 -0.008555604 -0.18822329 0.059889227 -0.051333625 -0.5390031
-0.025666812 -0.06844483 0.051333625 -0.119778454 -0.29944614 -0.051333625 -0.008555604 0.059889227
-0.4277802 -0.15400088 0.0 0.111222856 0.017111208 0.07700044 -0.34222418 -0.28233492
0.10266725 -0.07700044 -0.17966768 -0.059889227 0.059889227 0.094111644 -0.051333625 -0.35933536
-0.17966768 0.119778454 -0.3935578 -0.06844483 -0.13688967 -0.025666812 0.059889227 -0.042778023
00000000: c1e4 02bc eafa e6e1 f2d8 e202 0e02 1309
00000010: f50a def5 f8ea dbf2 fbed d700 edf5 d7f3
00000020: f0ed e5fe f803 e6d6 e9ef e9ff f1f6 04e6
00000030: f605 0cdc 0ffd dffa faff eeec ebeb 1e12
00000040: f2f5 18ec efd3 0bdc f80e e3f6 efde d8ed
00000050: fce9 fae8 efe1 16b5 e6e7 c411 fcff d5d8
00000060: 1a08 fee7 d81d faf7 d5e7 e9f5 0afc f3f5
00000070: fbcb eefa 0fd5 f1d1 d600 b4f6 fee5 e6f3
00000080: cb09 01e9 feed d305 dbd4 0de4 daf6 e5f6
00000090: efec e501 feca ecf0 d307 f6e7 0bf9 f816
000000a0: 0ef8 e9db 07f3 ebf4 f50a 0e0b 08f7 e7fb
000000b0: fade f8ea 00fd da01 eadd 06f6 ebff 06fd
000000c0: edfc ec04 fcdf e4f4 fad6 c70d d9df eff7
000000d0: bde7 05ed e4f9 13f6 f7eb 02ff ea07 fac1
000000e0: fdf8 06f2 ddfa ff07 ceee 000d 0209 d8df
000000f0: 0cf7 ebf9 070b fad6 eb0e d2f8 f0fd 07fb

model_3/dense_9/MatMul i1 [128, 500] scale=0.0072618593 zero_point=0
-0.07988045 0.0072618593 0.15249905 -0.06535673 -0.0072618593 0.058094874 -0.0072618593 -0.021785578
-0.15249905 0.050833017 0.0 -0.029047437 0.1597609 -0.0072618593 -0.06535673 -0.0145237185
0.09440417 -0.123451605 0.029047437 -0.036309294 -0.029047437 -0.050833017 -0.10166603 0.17428462
-0.2323795 -0.22511764 -0.050833017 -0.13797532 -0.27595064 0.0072618593 -0.058094874 0.13071346
0.058094874 -0.18880834 -0.21785578 0.21785578 -0.15249905 0.07261859 -0.07988045 -0.0145237185
-0.058094874 0.029047437 -0.021785578 -0.16702276 -0.0145237185 -0.18154648 -0.058094874 0.09440417
-0.0145237185 -0.029047437 -0.08714231 -0.07261859 0.07261859 0.0 -0.1597609 -0.0072618593
0.06535673 -0.14523718 -0.15249905 0.029047437 0.123451605 -0.0072618593 0.06535673 -0.2832125
-0.1960702 -0.021785578 0.029047437 -0.08714231 0.050833017 -0.0072618593 0.09440417 -0.0145237185
-0.09440417 0.10892789 -0.043571156 -0.058094874 -0.07261859 0.14523718 -0.06535673 -0.07261859
0.13071346 -0.15249905 -0.20333207 -0.13797532 -0.18880834 0.20333207 -0.043571156 0.06535673
-0.31225994 0.0 -0.10166603 0.0072618593 0.0145237185 0.29047436 -0.32678366 0.08714231
-0.0072618593 -0.021785578 0.0 -0.27595064 -0.10166603 -0.0072618593 -0.22511764 0.021785578
0.058094874 -0.07261859 0.050833017 -0.10166603 0.050833017 -0.123451605 -0.14523718 -0.043571156
0.06535673 -0.0145237185 0.0072618593 0.036309294 -0.043571156 0.036309294 0.08714231 0.0072618593
0.07261859 -0.0145237185 -0.06535673 -0.13071346 -0.0072618593 0.13071346 -0.0145237185 0.050833017
0.1597609 0.050833017 0.0072618593 0.18880834 -0.043571156 -0.029047437 0.17428462 -0.07988045
-0.0145237185 -0.058094874 0.043571156 -0.0072618593 -0.07261859 -0.09440417 -0.021785578 -0.029047437
-0.021785578 -0.0145237185 0.050833017 -0.058094874 -0.021785578 -0.14523718 0.029047437 -0.029047437
0.021785578 -0.036309294 0.0072618593 -0.10166603 -0.1960702 0.0145237185 0.10166603 -0.2323795
0.06535673 0.050833017 -0.0145237185 -0.043571156 0.029047437 -0.029047437 0.058094874 0.13797532
-0.09440417 -0.036309294 -0.036309294 -0.3195218 0.21785578 -0.123451605 -0.1960702 -0.16702276
0.043571156 -0.26142693 -0.34856924 -0.021785578 0.036309294 -0.036309294 -0.050833017 0.0
-0.029047437 0.08714231 -0.043571156 -0.021785578 -0.07988045 -0.123451605 -0.08714231 -0.0145237185
0.0 0.029047437 -0.0072618593 -0.029047437 -0.0072618593 -0.123451605 -0.07261859 0.021785578
0.058094874 -0.0145237185 -0.0145237185 -0.058094874 -0.07261859 -0.07988045 -0.036309294 0.123451605
-0.0072618593 -0.06535673 -0.18154648 0.0072618593 -0.0145237185 0.06535673 -0.14523718 0.13071346
-0.058094874 -0.13797532 0.17428462 -0.043571156 -0.3049981 -0.21785578 0.1597609 -0.13071346
-0.058094874 -0.0145237185 0.036309294 0.09440417 0.09440417 -0.043571156 -0.0072618593 0.123451605
-0.07988045 -0.050833017 -0.17428462 -0.26142693 0.09440417 0.11618975 0.18880834 -0.050833017
-0.08714231 -0.18154648 0.043571156 0.13071346 0.043571156 0.0 -0.10166603 0.036309294
0.050833017 -0.09440417 -0.0072618593 -0.021785578 0.10166603 -0.07988045 0.050833017 -0.06535673
00000000: f501 15f7 ff08 fffd eb07 00fc 16ff f7fe
00000010: 0def 04fb fcf9 f218 e0e1 f9ed da01 f812
00000020: 08e6 e21e eb0a f5fe f804 fde9 fee7 f80d
00000030: fefc f4f6 0a00 eaff 09ec eb04 11ff 09d9
00000040: e5fd 04f4 07ff 0dfe f30f faf8 f614 f7f6
00000050: 12eb e4ed e61c fa09 d500 f201 0228 d30c
00000060: fffd 00da f2ff e103 08f6 07f2 07ef ecfa
00000070: 09fe 0105 fa05 0c01 0afe f7ee ff12 fe07
00000080: 1607 011a fafc 18f5 fef8 06ff f6f3 fdfc
00000090: fdfe 07f8 fdec 04fc 03fb 01f2 e502 0ee0
000000a0: 0907 fefa 04fc 0813 f3fb fbd4 1eef e5e9
000000b0: 06dc d0fd 05fb f900 fc0c fafd f5ef f4fe
000000c0: 0004 fffc ffef f603 08fe fef8 f6f5 fb11
000000d0: fff7 e701 fe09 ec12 f8ed 18fa d6e2 16ee
000000e0: f8fe 050d 0dfa ff11 f5f9 e8dc 0d10 1af9
000000f0: f4e7 0612 0600 f205 07f3 fffd 0ef5 07f7
